model_cnn.pth (torch, 434831 bytes, 8 tensors)

conv1.weight f4 [6, 3, 5, 5]
000000 9b 76 ce 3d 20 78 3e bd 44 a2 53 bd 19 a5 14 3d
       0.10081216 -0.04650128 -0.05166842 0.036290262
000010 c1 88 6d 3d c4 bd d4 3d 5e 35 32 3b 6f b8 3b 3e
       0.057991747 0.103877574 0.0027192454 0.18332075
000020 ef 8b 6e 3e 40 06 96 3d f0 16 21 3d 36 9b 08 3e
       0.23295568 0.07325411 0.039328516 0.13340458
000030 37 65 20 3e cc d6 82 3e 7d 4f ff 3d bd 76 1b 3e
       0.1566361 0.25554502 0.12466333 0.15182014
000040 2a b4 e2 3c 88 52 1d 3e 15 30 04 3e c1 d1 0f 3e
       0.0276738 0.15363514 0.12908967 0.14044859
000050 d0 9d 07 3c 12 35 66 3b 43 ed b1 3d aa 57 d5 3d
       0.0082773715 0.0035126847 0.08687832 0.10417111
000060 d1 e9 6f 3b b7 58 ad bd a7 c2 8d bd f3 bd 2a bd
       0.0036607871 -0.08464187 -0.069218926 -0.041685056
000070 11 94 04 3c 4d 12 e7 3d f8 84 32 be 77 b4 77 be
       0.008091942 0.112827875 -0.17433536 -0.24189936
000080 cf ce dd bd 34 02 00 3c 46 f5 ce 3d 74 23 2c be
       -0.10830461 0.007813025 0.10105376 -0.168104
000090 d6 a4 e1 bd d2 10 a5 3d af 3f 81 bd 2c 01 c7 3d
       -0.11017768 0.08059849 -0.06310975 0.097170204
0000a0 1e 87 68 be b6 92 de bd a7 90 99 bc 64 fd 97 bd
       -0.22707793 -0.10867827 -0.018745733 -0.07421377
0000b0 34 3c c0 ba 5f 00 bf bc 2c 45 d8 bd 13 ce f4 bd
       -0.001466638 -0.023315607 -0.105600685 -0.11953368
0000c0 6d 65 28 be ff a9 b1 3c 81 ab 2c ba e6 7d 69 3d
       -0.16444941 0.021687506 -0.00065868354 0.05700483
0000d0 7b e5 97 bd b4 c1 15 bc 87 7d 99 bd d4 30 c9 bd
       -0.07416817 -0.009140421 -0.074946456 -0.09823766
0000e0 ed d0 0a bd a8 33 54 bd 8b d4 21 3d b7 c4 97 bd
       -0.033890653 -0.051807076 0.039509337 -0.07410567
0000f0 e9 61 d5 bd e4 fa fb bd f5 af b0 bd 85 55 9c bd
       -0.104190655 -0.12303713 -0.08627311 -0.07633499
000100 73 fc ef bb 7c 3a 87 3c f0 57 a4 3d 8c 41 c6 3d
       -0.0073237955 0.01650738 0.08024585 0.09680471
000110 fd f5 9d 3d 2f e5 ae bb 4b 72 9b 3c 30 1c a1 3d
       0.07712934 -0.0053373794 0.018975398 0.078667045
000120 84 6a 7b 3d 56 a2 04 bd b5 16 ad bd e1 4f 1d 3b
       0.061380878 -0.032381378 -0.08451597 0.002400391
000130 b1 36 1a bd 2c 35 16 be d7 45 48 bd f5 b7 57 3d
       -0.037649814 -0.14668721 -0.04889473 0.05266567
000140 43 02 8e bc 00 40 08 be 15 66 21 be d7 49 36 be
       -0.017335063 -0.13305664 -0.15761597 -0.17801605
000150 ab 52 e1 bd b9 cd fa bd 1f 30 bd bd 48 41 5e bd
       -0.11002096 -0.1224627 -0.09237694 -0.054261476
000160 9e e7 12 be 60 73 00 be 2d dd 0e be 3f ff f8 bd
       -0.14346167 -0.12544012 -0.1395156 -0.12158059
000170 8e 43 e1 bd 97 a1 c9 bd ca 6c ca 3c 0d cc 0b bd
       -0.10999213 -0.09845274 0.024710078 -0.034130145
000180 52 9b ec 3c 9a f2 49 3c 41 7a bb 3d 69 b8 c6 3d
       0.028882656 0.012325907 0.091541775 0.09703142
000190 b8 4b 88 3b 4a 59 e0 3b 84 c2 36 bb 04 96 3d bd
       0.004159417 0.0068465816 -0.0027886936 -0.046285644
0001a0 8e 06 9a bd f9 97 d2 3d 14 96 03 bd c7 ba 0b 3e
       -0.075207815 0.10282893 -0.032125548 0.13645469
0001b0 9f 61 83 3d cd 38 5a bd 9b d7 7a bd 9b 17 93 bc
       0.06415104 -0.053276826 -0.061240774 -0.017955592
0001c0 01 12 0a bd 29 cc 7b 3d 5b a1 49 3c 2c 90 93 bd
       -0.033708576 0.061474 0.012306537 -0.07205233
0001d0 ee f1 cb bd 4f 6e 93 3b 7e 73 b3 bc 0d 50 13 be
       -0.09958254 0.004499234 -0.021905657 -0.14386006
0001e0 4e e7 9a 3c 79 c6 5d 3d 88 2b 45 3b af 33 2a bd
       0.018909123 0.054144356 0.003008576 -0.041553196
0001f0 a3 e3 0d be 65 07 bb 3d a1 3b 0c 3e ef e7 5d 3d
       -0.13856368 0.0913227 0.13694622 0.054176267
000200 d7 29 1e 3e 44 ad e1 bd 7b 2d 04 3d fd 40 41 3d
       0.15445648 -0.11019376 0.032269936 0.04718112
000210 26 56 21 3e fe c8 2e 3e ac b6 44 3e 7e 16 61 3d
       0.1575552 0.1706886 0.19210309 0.05495309
000220 d2 50 08 3e f2 e8 f8 3d 87 61 07 3e 0e d5 41 3e
       0.1331208 0.12153806 0.13220797 0.1892893
000230 27 67 96 bd f0 48 17 bd 6b df f5 bc e8 cd b0 3a
       -0.073438935 -0.036934793 -0.03001376 0.0013489099
000240 4c 59 59 bc b3 c1 d7 3d db 5f 0a 3e db 8a 53 3e
       -0.013265919 0.10534992 0.13513128 0.20658438
000250 0d 99 2f 3e 81 1a 04 3e f7 6f 0a bc bb 8a 69 bd
       0.17148228 0.12900735 -0.008449546 -0.05701707
000260 39 00 22 3e 0a b6 37 be f2 e7 78 3d 96 46 ed bd
       0.15820397 -0.17940536 0.060768075 -0.11585729
000270 f5 9b 94 bd a8 f4 3b 3e e7 53 63 be e7 29 22 3e
       -0.07256309 0.18355048 -0.22199975 0.15836297
000280 48 70 84 be ca c2 8e 3d 1d 9a 4d 3e 0f aa 52 be
       -0.25866914 0.06970747 0.20078321 -0.20572685
000290 a8 4a fa 3d 85 19 8f 3c 9c 17 cd bd bb 01 40 3e
       0.12221271 0.017468223 -0.10014269 0.1875066
0002a0 e4 84 02 be d1 18 4f 3d 0c a5 99 3d cb f2 20 be
       -0.12746006 0.050560776 0.07502183 -0.15717618
0002b0 d2 8a e8 3d 99 5e 1c be b2 e0 b5 bc 5d 7c ab bc
       0.11354603 -0.15270461 -0.02220187 -0.020933324
0002c0 60 ff e6 3c 7c e3 ba 3d dd 3d 0b be d7 31 9a 3d
       0.028197944 0.091254205 -0.13597818 0.075290374
0002d0 92 67 3c 3d 88 66 d9 3d 25 e9 61 3d cd 91 87 be
       0.04599721 0.106152594 0.055153985 -0.26478425
0002e0 b6 51 bf bb 4a 97 fc bd 10 ce b4 3d 19 a4 64 3e
       -0.005838598 -0.123335436 0.08828366 0.22328223
0002f0 01 89 67 be 4a 8a 67 3d ff 03 4f 3e e9 30 5a 3e
       -0.22610857 0.056528367 0.20216368 0.2130772
000300 d4 32 23 3e 42 c2 12 be 28 fb 46 bd 1d 3e 74 3c
       0.15937358 -0.14331916 -0.048579365 0.014907387
000310 c1 60 ca bd 46 38 3e 3d b3 10 fc bd 2e c2 8b 3d
       -0.098817356 0.046440385 -0.123078726 0.06824146
000320 ce 78 c0 bd 5b fa b4 3d 3a 53 0f 3e 43 a7 84 bd
       -0.09398042 0.08836814 0.13996592 -0.06477215
000330 99 c5 5a 3d 67 77 2b be b5 12 02 3e 5d 94 56 3d
       0.0534111 -0.16744767 0.12702449 0.052387584
000340 0a 78 7e be 51 ca 31 3e bc 9a 04 be 67 29 96 bd
       -0.24850479 0.17362334 -0.12949651 -0.073321156
000350 cf 53 41 3e 7d 03 2f be 45 64 b6 3d 0e 69 90 bd
       0.18879627 -0.17091174 0.08905844 -0.070512876
000360 3b 4d 8b 3d df 42 ce 3d b3 ff bf bd f2 51 26 3d
       0.0680184 0.100713484 -0.09374943 0.040605493
000370 10 fb 13 bb 40 7d 2e be e1 04 73 3d 59 e0 4f be
       -0.0022580065 -0.17039967 0.059330825 -0.20300426
000380 10 58 37 3e fb 71 62 bd 2f af 33 bd e5 84 2e 3e
       0.17904687 -0.05528448 -0.04386824 0.17042883
000390 fe 89 16 3d 38 26 d3 bd 0a fd d8 bc 13 9e 5d 3d
       0.036752693 -0.10310024 -0.026487846 0.05410583
0003a0 13 a3 00 bb c3 b5 86 3b 00 f2 e6 3c 90 f2 97 3c
       -0.001962845 0.004111023 0.028191566 0.01854828
0003b0 09 07 c4 bd 04 8a f1 bd d5 01 2d 3d fb 6b 61 3d
       -0.09571654 -0.117939025 0.042238075 0.05503462
0003c0 50 d3 73 3d 9e 9c 6f 3c 95 49 c4 bd 75 4e 87 bd
       0.059527695 0.014624743 -0.09584347 -0.06606761
0003d0 98 d8 a7 3c 22 d8 3f 3d 2e 12 a4 bc 9b 24 57 bd
       0.020489022 0.04683698 -0.0200282 -0.052525144
0003e0 cd e0 07 bc 1d 5f c5 bb 25 41 83 bd e0 d4 c4 3c
       -0.008293343 -0.0060233013 -0.0640891 0.024027288
0003f0 69 29 13 3e 09 f5 23 bc 64 99 a4 bc 57 41 5e 3d
       0.14371265 -0.010007151 -0.020092674 0.05426153

conv1.bias f4 [6]
000000 fc d4 94 bd 18 cb 4c 3d 26 6e 05 3d 91 35 55 be
       -0.07267186 0.049998373 0.03257575 -0.20821215
000010 93 14 b4 3c 14 60 1c 3d
       0.021982467 0.038177565

conv2.weight f4 [16, 6, 5, 5]
000000 3d 86 01 3a 68 4b 71 bd 54 23 2a bd e0 cd 8b 3d
       0.00049409625 -0.058909804 -0.041537598 0.06826377
000010 4a d9 a5 bd de ad 06 bd b1 2b 70 3d 47 0a 99 3d
       -0.08098085 -0.032880656 0.058635417 0.074726634
000020 16 6d 53 be c2 09 c4 bd 69 19 33 bd 79 25 6c bc
       -0.20647082 -0.09572174 -0.043725405 -0.014413231
000030 0d 48 ba bd d9 61 52 be 52 40 1a 3e 7c d3 97 3c
       -0.09095774 -0.20545138 0.15063599 0.01853346
000040 f1 a3 98 bd ab cc 2a be 77 77 60 3c b4 12 4e 3e
       -0.07453144 -0.16679637 0.013700358 0.20124322
000050 26 c8 81 3d d0 91 80 3c cb cd 5b 3e db de 38 3e
       0.063370034 0.015694529 0.21465223 0.18053763
000060 5d 7c d9 3d 0f 67 64 bd 07 4d bc 3d 67 05 04 bc
       0.106194235 -0.055762347 0.09194379 -0.008057929
000070 e1 d6 8d bc 04 98 cc 3c f2 c0 fe bc 33 66 c9 3d
       -0.017314376 0.02497483 -0.031097863 0.09833946
000080 b1 50 f1 3c e9 46 22 bd d6 57 2a 3e e8 9f f4 bd
       0.029457422 -0.039618406 0.16635069 -0.11944562
000090 8c 1c 0f be a8 06 84 bd 55 f8 28 3d 62 90 77 3e
       -0.13975734 -0.06446582 0.041252453 0.24176171
0000a0 ee 5d 26 be 62 82 89 bd a0 98 02 3e dc b3 8d 3e
       -0.16246769 -0.06714322 0.12753534 0.27676284
0000b0 73 13 fd 3d 0f 36 6a bd 61 a6 1c 3e a2 ee 2d 3e
       0.12357225 -0.05718046 0.15297844 0.16985562
0000c0 48 12 a1 3b eb 86 36 bd 5b 69 ad bd a3 42 02 3d
       0.0049155094 -0.04456226 -0.084673606 0.03180183
0000d0 fe ec dc bd 0e 8b b2 bd 6d c1 d0 bc 2b d4 1b 3c
       -0.1078739 -0.08717929 -0.025482858 0.009511034
0000e0 d9 57 c8 bd cb ec f4 bd 89 62 00 bc ce 98 85 be
       -0.097823806 -0.11959227 -0.007835993 -0.26093143
0000f0 1f de bb 3b cc fd 01 3e e2 c1 04 3e d7 e5 5f bd
       0.005733266 0.12694472 0.12964585 -0.05466255
000100 7b ae b7 bd c8 57 af bb f3 9d f9 bd ed f0 83 be
       -0.089688264 -0.0053510405 -0.121883295 -0.2576975
000110 4a e7 54 be db 1e 4a 3e b0 44 f7 bd 6b 29 84 be
       -0.20791355 0.19738333 -0.12073648 -0.2581285
000120 fe 36 d2 bc ce b7 06 3e bb 5e 9f 3d 78 95 85 bd
       -0.025660988 0.13156053 0.0778174 -0.065226495
000130 8d 7a 5d bd b8 40 06 be ce a4 a0 bd f9 37 03 3d
       -0.05407195 -0.13110626 -0.07843934 0.0320358
000140 55 e8 18 be 57 ac 97 bd 79 0a 3e 3c ee 1d e6 bc
       -0.14932378 -0.07405918 0.011599177 -0.028090443
000150 d2 ec 6f bd 13 c0 e8 bb f8 93 0f bd b7 89 bf bc
       -0.05857546 -0.007102975 -0.035053223 -0.023381097
000160 dd 32 35 bd b3 99 83 be 2e 88 c3 3d 19 39 51 ba
       -0.04423796 -0.257032 0.095474586 -0.00079812255
000170 70 ce 14 be b2 6e 63 be c7 e2 cb 3c 45 2e f2 3d
       -0.14531875 -0.22210196 0.02488841 0.118252315
000180 a1 72 86 bd 7f 6a e2 bd b3 50 01 3e 59 56 95 3e
       -0.065648325 -0.11055469 0.1262844 0.2916744
000190 1f be 2f 3d 60 d9 0d 3e 94 92 96 bd e0 09 36 be
       0.042905923 0.13852453 -0.07352176 -0.17777205
0001a0 8d 7e 88 3e 90 26 1f 3e 67 4b c7 bd 9b 43 23 be
       0.2665905 0.15542054 -0.09731179 -0.15943758
0001b0 78 b6 8d 3e a0 68 dc 3d 5b 4c 16 be c3 c5 af bd
       0.27678275 0.10762143 -0.14677565 -0.08582642
0001c0 00 6a a5 3e f4 b8 ce 3e 5a d3 03 be 29 46 17 be
       0.32307434 0.40375483 -0.12873593 -0.14772858
0001d0 10 2e 00 3e f1 27 6a 3e 50 22 1b be 62 01 01 3e
       0.12517571 0.22866799 -0.15149808 0.12598184
0001e0 c2 24 85 3d c1 b3 cc ba 53 d0 aa bc 28 df 49 3c
       0.065011516 -0.0015617536 -0.02085129 0.012321271
0001f0 08 3c 92 3d 14 66 a3 bd 9d e3 de 3c 8e 87 96 bd
       0.07140356 -0.07978454 0.027208144 -0.07350074
000200 71 80 b5 bd d5 5d 15 3e a1 0c d9 3d 6d e3 81 3d
       -0.08862389 0.14586575 0.10598112 0.06342206
000210 b5 a1 d0 bd 9c af 3f 3e 58 13 13 3e 35 6a 75 3d
       -0.10187093 0.18719333 0.14362848 0.05991574
000220 6a 38 09 be f9 34 63 3e c0 98 52 3e 1d 98 6d be
       -0.13400427 0.22188176 0.20566082 -0.23202558
000230 55 c6 58 bd e3 a3 ee 3d c1 8f 42 3e 80 ed c0 bd
       -0.05292352 0.11652353 0.1900015 -0.094202995
000240 79 ee bd bd 52 13 06 3e 32 47 a8 3d fa 37 97 bd
       -0.09274001 0.13093308 0.082167044 -0.073837236
000250 8a ac f7 bc b7 24 81 3e b8 e6 37 be e8 2b 7f be
       -0.03023364 0.25223324 -0.17959106 -0.24919093
000260 3a 9d 60 be 45 32 65 be 80 34 28 bd e5 55 b4 bd
       -0.21934977 -0.22382458 -0.041065693 -0.088054456
000270 2c 8a 20 bd 20 24 25 bd 04 c8 ad bd f7 f5 76 bd
       -0.03919427 -0.040317655 -0.084854156 -0.060293164
000280 66 46 a4 3d 46 bb 39 3e 5e fb 43 3e 1d c0 b8 3c
       0.0802124 0.18137845 0.19138858 0.022552544
000290 eb da 11 3e 44 1d 42 3e f0 61 92 3e fe 4d e8 3d
       0.14243667 0.18956476 0.28590345 0.11343001
0002a0 f9 01 91 3d ed d2 5b 3d e4 f3 93 3c d3 f0 89 3d
       0.070804544 0.05366795 0.018060632 0.06735387
0002b0 db 2c ad bc 7e 67 90 bd 74 8b 1d bc 10 7c d7 3d
       -0.021139553 -0.070509896 -0.009615768 0.1052171
0002c0 1a 25 4a 3e 59 98 34 3e a7 b1 26 3e a9 60 58 3e
       0.19740716 0.17636241 0.16278706 0.21130623
0002d0 8e f2 0c 3e 20 d7 f8 bc 17 6f 61 3b 58 ff 65 3d
       0.13764402 -0.030376017 0.003439849 0.056151718
0002e0 95 67 8c bb a3 f1 4b bc c8 9c 14 bc 58 53 24 bd
       -0.004284809 -0.012447747 -0.009070583 -0.040118545
0002f0 98 d4 01 bd 95 b5 48 bd fa a6 e5 bd 63 bf 6d bd
       -0.031696886 -0.049001295 -0.11213489 -0.05804385
000300 14 bf 9c bd c1 60 5e bd ce fa 07 3d e8 3a 66 3d
       -0.07653633 -0.05429149 0.03319817 0.05620852
000310 fc f8 22 3d e5 6f 9d bd a7 1d f0 bd 61 9d 3f bd
       0.03978823 -0.07687358 -0.11724406 -0.046780948
000320 1c b4 80 bd f8 cc 4a bc eb 8a 1b 3e 5a f7 f9 3d
       -0.06284353 -0.01237797 0.15189712 0.12205382
000330 44 c2 9e 3d 42 62 fe bc c2 7c f2 3b 09 e7 9a 3d
       0.07751897 -0.031052712 0.007400126 0.07563598
000340 03 16 22 3e 15 12 72 3d 61 a3 4b bd 2d c4 04 be
       0.1582871 0.059099276 -0.049716357 -0.1296546
000350 4e 89 b6 3a c0 5c 11 3d 6b 61 d9 bc 5d d8 33 3d
       0.0013926418 0.035488844 -0.02653571 0.043907512
000360 0d c1 0a be 77 94 d1 bd 70 07 52 3d 83 40 af bb
       -0.13550206 -0.102333955 0.051276624 -0.0053482666
000370 40 d0 42 3d de 24 af bc 13 81 89 bb 73 87 9b 3d
       0.047561884 -0.021379884 -0.004196295 0.07594194
000380 4c e4 0d bd b8 8f 3e 3e d6 82 e5 3d c5 c0 0b 3e
       -0.03464155 0.18609512 0.112065956 0.13647754
000390 37 a4 31 3e 4c bd 3b 3e a4 a2 b8 bc 17 e5 03 3d
       0.17347799 0.1833393 -0.02253849 0.0322009
0003a0 11 d2 e0 3d 82 4f cc 3d 96 f6 18 3e f9 ea 28 3d
       0.10977567 0.099761024 0.14937815 0.041239712
0003b0 23 6f 75 bc 9a 78 c8 bd 8b f0 b9 bd 84 44 94 3c
       -0.01498011 -0.09788628 -0.09079083 0.018099077
0003c0 9e 74 06 bd dc 52 ed bb 78 6c dc bc a1 95 4b bd
       -0.03282606 -0.0072425436 -0.02690719 -0.049703244
0003d0 64 c7 af 3b ed 7c 97 bd 6f 2d 12 be 5d 29 13 be
       0.0053643454 -0.073968746 -0.14275144 -0.14371248
0003e0 be 3f 34 be de e1 37 be d4 44 b6 3c ee db b7 bd
       -0.1760244 -0.17957255 0.022249617 -0.08977495
0003f0 61 07 a4 bd 7c 87 42 bd 91 18 a2 3d 4a 70 11 bd
       -0.0800922 -0.04749249 0.07914842 -0.035507478

conv2.bias f4 [16]
000000 ef 4a c1 bd cc 25 8c be be 08 ce bd 1b d2 36 3c
       -0.094381206 -0.27372587 -0.10060261 0.0111584915
000010 de 86 0a 3e 87 43 e5 3c 5a d5 d1 3d 9b 7e 5e 3d
       0.1352801 0.027986301 0.10245772 0.05431996
000020 1a 16 81 be 6b eb 85 3e 05 ad 06 3f fd d8 08 3d
       -0.25212175 0.26156172 0.52607757 0.03341006
000030 a9 63 90 3e 39 5d db bc 8a c0 99 3e 99 11 c9 bd
       0.28201035 -0.02677785 0.30029708 -0.098178096

fc1.weight f4 [256, 400]
000000 dc 1a 77 bd fa eb d5 3b 90 b3 b3 3c be bd 1a 3d
       -0.06032835 0.0065283747 0.021936208 0.03777861
000010 d7 d0 54 bc fa ba 24 3d 0b d7 9a 3c b1 ea 2a bc
       -0.012989244 0.040217377 0.018901369 -0.010431931
000020 06 79 06 bd 69 af a6 3c 6b d1 64 3c f7 76 80 3c
       -0.03283026 0.020347314 0.013965945 0.015681727
000030 c3 51 38 bb 2a 2e 66 bd 5f 96 62 bd 75 08 1b bd
       -0.0028124906 -0.05619637 -0.055319186 -0.037849862
000040 2b dd 56 bd df 3e 3a bd ea da 7f bd 7e 11 01 bd
       -0.052457016 -0.045470115 -0.062464632 -0.031510822
000050 41 92 8a bd 1c 0c 82 3a e0 02 ab bd 3c 55 ae bd
       -0.06766177 0.0009921822 -0.08350158 -0.08512351
000060 c9 3d de 3c 35 97 ef bc 99 4f 03 bd 19 79 dd b9
       0.02712907 -0.029246906 -0.032058332 -0.0004224263
000070 68 cb 6c bd d2 c5 02 bd 97 e7 30 bd 45 b9 86 bd
       -0.05781117 -0.031926937 -0.04318961 -0.06578306
000080 c7 a1 4e bd 8b 82 f0 bc 2c 38 0a bc 79 64 d1 bc
       -0.05044725 -0.029359123 -0.008436244 -0.025560604
000090 bb 64 e7 3c dd 37 10 bc 23 79 63 bd 17 dc f1 3c
       0.028246274 -0.008802381 -0.055535447 0.029523892
0000a0 cd b0 5c bd 3a 9d 91 bd 38 91 89 bc 3c 7c 27 bc
       -0.053879548 -0.07110067 -0.016792879 -0.010222491
0000b0 55 8d 81 3c 80 a3 8d bd b4 f8 44 3b f2 2d 43 bd
       0.015814463 -0.06915951 0.0030055465 -0.04765124
0000c0 56 6a df bc 3d 1d de bc 7c 4c 25 bb 11 8c 84 bd
       -0.027272385 -0.027113551 -0.002522259 -0.06472028
0000d0 e9 5d 01 bd 69 aa 37 3c bf 92 d0 bb d8 32 44 bb
       -0.0315837 0.011210063 -0.0063651497 -0.0029937532
0000e0 c3 82 30 3d 9a b1 82 bd 70 c8 5e bd a6 df 97 bc
       0.043093454 -0.06381531 -0.05439037 -0.018539261
0000f0 25 0a 4a bd 14 d5 66 3c 36 3d f3 bc 50 98 68 bd
       -0.04932608 0.014088888 -0.029692274 -0.05678588
000100 3e 5e 9d bd 22 b7 d1 bd 80 5a 6a bc af 8e cd bc
       -0.07683991 -0.10240008 -0.014303803 -0.02509245
000110 92 86 b5 bc 9a 36 54 bd 08 66 02 3d af 30 4c bd
       -0.022158895 -0.051809885 0.031835586 -0.049851116
000120 34 b2 bb bd ed 6b 4c bd 07 c3 56 bd 91 bd 07 bc
       -0.09164849 -0.049907614 -0.052432086 -0.008284942
000130 65 06 36 bd 86 36 be bb 4f 23 c5 bb 85 98 d1 3c
       -0.044439692 -0.0058048395 -0.006016172 0.025585422
000140 d9 1e a4 3a 07 3f be bd c9 44 c4 bd 7e 77 c1 bd
       0.00125214 -0.09289365 -0.09583432 -0.094466195
000150 a5 88 9c bd ea 19 51 bd c3 bc ed 3b f6 ec ad bd
       -0.076432504 -0.051050104 0.007255168 -0.08492462
000160 5a 6a 39 bc 3f e0 6b bd 33 a0 86 3b 34 fc f8 bc
       -0.01131686 -0.057586905 0.0041084527 -0.030393697
000170 66 b8 fd bc 63 e7 90 bd 49 c7 66 bd 90 4f a1 bd
       -0.030971717 -0.070753835 -0.056342397 -0.078765035
000180 d0 fc 8b bd 48 85 80 3b a8 af 86 3c ac 0a 44 bd
       -0.068353295 0.0039221384 0.016441181 -0.04786174
000190 ad 97 41 3d a3 cd 22 bd 09 df 98 bd 68 b6 86 bc
       0.04726379 -0.03974689 -0.074644156 -0.0164444
0001a0 ba a9 9f 3c 2c 87 5c 3d 38 f4 05 bd 9c d2 1d bb
       0.019490112 0.053839847 -0.03270361 -0.0024081832
0001b0 e6 fb f6 3c c6 e9 5f bd 50 2d 10 3d be 25 99 bd
       0.030149411 -0.054666303 0.035199463 -0.07477902
0001c0 36 58 17 3d f7 f3 06 bd ce c9 0e 3c 7d 81 0b bd
       0.03694936 -0.032947507 0.008715106 -0.034059037
0001d0 5a 49 7c bd 3a a1 a9 bd e8 09 7d bc e7 35 7e 3c
       -0.06159339 -0.08282705 -0.015444256 0.015515781
0001e0 77 cd e4 3b 83 29 6c 3b 2f 14 00 bd c6 aa aa 3c
       0.006982501 0.0036035485 -0.03126925 0.020833384
0001f0 92 29 e9 bc e9 3d d8 bc 41 5a 24 3d a1 61 87 3d
       -0.028462205 -0.026396709 0.040125135 0.06610418
000200 ae 0d 52 bc c5 be 41 3d d4 91 6d bc f5 60 83 3d
       -0.012820644 0.047301073 -0.0145001 0.064149775
000210 00 6c 79 3d 62 9f c8 bc 10 21 86 bd a3 a1 72 3d
       0.060894012 -0.024490062 -0.06549275 0.05923618
000220 bd e9 e4 ba d5 a3 e2 3c 17 53 a5 bd 8e 9f 8e bd
       -0.0017464679 0.027666012 -0.08072489 -0.069640264
000230 d9 ac 2c 3d 80 1c 0e 3d ea 24 75 bd 5e ad 8c bd
       0.042157028 0.03469515 -0.059849657 -0.06869005
000240 27 a1 79 3c 81 6b 66 bd 69 8b 65 3c ae c0 3d bd
       0.015236176 -0.056254867 0.014010289 -0.04632633
000250 46 a1 fd bc 74 36 7c bd 85 65 b8 bc d7 19 95 bd
       -0.03096069 -0.061575368 -0.022509346 -0.07280319
000260 ea 2a 62 bd ae 36 52 bd f2 1b ba 3c a2 f1 54 3c
       -0.055216707 -0.051321678 0.022718403 0.012997063
000270 66 52 85 bd 87 9b 8f bd 8f ce 9c bd 67 44 1e 3d
       -0.06509857 -0.07012086 -0.076565854 0.038639452
000280 8c fc 6c bb 93 e3 c8 bd 4e 7c a0 bc ee 4d 13 3a
       -0.0036161272 -0.09809031 -0.019590523 0.00056192174
000290 7b a5 0a 3c 4a 9a 71 3d 81 fd aa bd 23 70 bb 3c
       0.008462305 0.058985032 -0.08349133 0.02288062
0002a0 d0 ca de bc ad 7e de bb 64 93 23 bd 5f b9 0d bd
       -0.027196318 -0.0067900033 -0.039935485 -0.03460061
0002b0 23 3f d4 bc 9e 9e 5a bd 7b 99 26 bc a8 37 a4 3b
       -0.025909012 -0.053373925 -0.0101684285 0.0050115176
0002c0 39 28 69 bc 97 bd 74 bd b2 69 72 bd fe a2 6e bd
       -0.014230781 -0.05975112 -0.05918283 -0.05826091
0002d0 43 00 63 bd 1d c4 ad 3b f5 a9 72 bd 7f f4 17 3d
       -0.05542017 0.0053029195 -0.059244115 0.037098404
0002e0 45 a5 51 bd 9e 1f a5 bd c2 20 1d 3a c8 a7 94 bd
       -0.051183004 -0.08062671 0.0005993956 -0.07258564
0002f0 5a d3 16 bd fa 52 6c bd 4f f0 03 3b d6 8e 98 3c
       -0.036822654 -0.05769632 0.0020132249 0.018622797
000300 ae b7 59 bd 8c 77 6c bd c8 e9 2c 39 70 68 89 bd
       -0.053153686 -0.057731196 0.00016490289 -0.06709373
000310 c6 36 ad 3c 28 4c 90 bd e4 5b 9f bc 6f 24 ff bc
       0.021144282 -0.07045776 -0.019452997 -0.031145303
000320 94 35 ab bd 8b b3 0b bc c7 8d 0b 3d 28 94 ee 3b
       -0.083598286 -0.008526693 0.034070756 0.007280845
000330 a7 a2 72 3c e9 a6 b8 bd d0 57 cc bc 5c d0 47 bc
       0.014809287 -0.090162106 -0.024944216 -0.012195673
000340 3a 77 a4 3b 34 d1 f0 bc 52 32 e1 bd 9d f5 6d bd
       0.0050190957 -0.02939663 -0.10995926 -0.058095563
000350 03 e0 e4 3b 9c 6c 1b bc 7e 9e 7a bd d9 fd 2f bb
       0.006984712 -0.009486344 -0.061186306 -0.0026854186
000360 6b 4e 24 bd 58 81 9c bc 77 b1 b2 3c ac a2 cd bb
       -0.040113848 -0.019104645 0.021813137 -0.0062754955
000370 c0 b4 c7 3c f9 bd a5 3c de 52 41 3d 86 34 ec 3c
       0.02437818 0.020232188 0.04719817 0.028833639
000380 a4 2d 37 3d ae f8 36 bc 2f 71 9e bd 9e ec 42 bd
       0.04472126 -0.011167688 -0.07736432 -0.047588937
000390 11 81 0a bd b3 06 e3 bc 31 d4 4d bd e1 c1 a8 bc
       -0.033814494 -0.027713155 -0.05025119 -0.020600261
0003a0 ab f5 4d bd 2c 17 35 bd d2 1e 4b 3c ab 11 8e 3b
       -0.050283115 -0.04421155 0.012397485 0.0043356023
0003b0 c2 0b 79 bd 3d eb 88 bc 37 48 d3 bc d4 3f 34 bd
       -0.06080223 -0.016713733 -0.02579127 -0.044006184
0003c0 12 40 98 bd 84 1e c2 bc 95 2b ab bd 52 2e 04 3c
       -0.074340954 -0.023696192 -0.08357922 0.008067684
0003d0 bf f1 cc bc 4f 9e 98 b8 2a dd 35 bd 04 d1 4e 3a
       -0.025017617 -7.277412e-05 -0.04440037 0.0007889422
0003e0 6a e2 50 bc ba eb da bb 71 ed 45 bd a3 a7 78 bb
       -0.012749294 -0.006680933 -0.048322145 -0.0037941716
0003f0 f2 24 7a ba d6 61 15 3d d9 e0 3a bd 04 5b 87 bd
       -0.00095422484 0.036470257 -0.045624588 -0.06609157

fc1.bias f4 [256]
000000 dd fa f9 b9 e5 d2 2a bd fd 52 30 bd 3b ed 9e 3d
       -0.0004767989 -0.04170503 -0.043047894 0.07760092
000010 e0 a6 5b bd 0f 0c 6c bd 09 ac d3 3e 7e 99 69 3e
       -0.05362594 -0.057628687 0.4134219 0.22812459
000020 87 94 96 bd f4 bc 7c 3c f5 40 10 bd 88 61 a8 3e
       -0.07352548 0.015425909 -0.035218198 0.3288691
000030 a2 ae 41 bd 52 68 85 bc a2 c2 31 3d 69 b0 19 bd
       -0.047285683 -0.016285095 0.043398507 -0.037521753
000040 99 d0 96 3e 1c d0 c6 3c 3d 9d ff bb 30 97 04 3e
       0.29456022 0.024269156 -0.0078007267 0.12948298
000050 44 16 3a bd 6b 6d ad bb 24 36 31 3e 8e 47 b9 bd
       -0.04543139 -0.0052925847 0.1730581 -0.09046851
000060 24 f8 92 3e db 70 e0 3d d5 b1 15 3e 99 c4 8f 3b
       0.2870494 0.109590255 0.14618619 0.00438745
000070 5b bf 35 bd 6c 3b d7 bd 75 52 a8 3e a1 62 ce bd
       -0.044371944 -0.10509381 0.3287541 -0.10077406
000080 ec 93 94 be 16 1c 3d 3e 4e 62 a4 3e 13 69 ad bc
       -0.29019105 0.18467745 0.3210625 -0.021168267
000090 76 23 36 3e 34 18 52 3e 6b 3f 80 bc f4 a8 b7 3d
       0.17786965 0.20517045 -0.01565524 0.08967772
0000a0 6f ae 23 3e ce f1 e6 3c 36 b3 1a bd a4 40 b4 bb
       0.1598451 0.028191473 -0.037768565 -0.00550087
0000b0 dd 41 ec bd 27 b6 ff bc 64 9c ff bc 75 09 10 3e
       -0.11536 -0.031214787 -0.031202503 0.14066108
0000c0 92 24 41 be 98 e7 b0 bd 7c e9 8e 3d c6 cc 7a bd
       -0.18861607 -0.08637923 0.06978127 -0.061230443
0000d0 4c 53 73 3e cb 49 0e 3c fe 0b c9 3e 87 15 13 3d
       0.23762244 0.008684586 0.39266962 0.035909202
0000e0 03 e7 22 3e 5f cd 89 3e 3b 7a 97 bb 33 fe ba 3d
       0.15908436 0.26914498 -0.0046227253 0.09130516
0000f0 75 de 88 bd dd ea 5c bd 28 48 2b be a5 02 21 3e
       -0.06683055 -0.05393492 -0.16726744 0.15723665
000100 ea 2a 67 bd 78 08 2f 3e 44 9c 8d 3e 5b d6 71 3d
       -0.05643741 0.17093074 0.27658284 0.059042316
000110 99 81 23 3e a9 2b 2e 3e d0 da ec 3d 79 19 9e 3d
       0.15967406 0.17008843 0.11565173 0.07719702
000120 b3 7f 9b 3e 4f ed a6 3e 33 a9 5c 3e ec fe b6 bc
       0.30370864 0.32602927 0.2154892 -0.022338353
000130 0a ad ad 3d e9 c9 89 3e 97 7b b6 3e b6 a6 b2 bc
       0.0848027 0.26911858 0.35641167 -0.02180801
000140 88 01 09 be 65 0a 7d 3c 4a d9 2a be a3 7e 50 bd
       -0.1337949 0.015444373 -0.16684452 -0.05090202
000150 08 06 86 bd cc 0f 88 bd 96 a2 06 3e dd 77 88 be
       -0.06544119 -0.06643638 0.13147959 -0.26653948
000160 d9 b8 8d bd a2 3a e6 3c 17 78 17 be 3b f4 a1 3d
       -0.069200225 0.02810413 -0.14791904 0.079079114
000170 ea 7c e4 3c 45 cb 5a bd cf 02 87 bd 41 06 90 3e
       0.027891595 -0.05341651 -0.065923326 0.2812977
000180 70 7b da bd 55 8b b9 3c 75 ce db bc 2a f0 98 3e
       -0.10668075 0.022649447 -0.026831845 0.2987073
000190 aa ac 87 3d c7 2b 20 3c 69 b0 12 3e 59 3e d3 3d
       0.0662473 0.009776062 0.14325108 0.10314626
0001a0 64 c0 99 3e dc cf c0 3c 5d 38 08 be bd c7 2b be
       0.30029595 0.023536615 -0.13302751 -0.16775413
0001b0 09 95 a7 bc 86 e3 48 bb c4 66 90 3e bc aa 6b bd
       -0.020456808 -0.0030653193 0.28203404 -0.057535872
0001c0 69 10 f6 3e f3 1c 49 3e f9 e8 09 bd 68 74 f3 bc
       0.48059395 0.1963995 -0.033669446 -0.029718593
0001d0 3a ab 94 3d 35 f9 57 3e 7f be 9a 3e f9 bd eb 3d
       0.072592214 0.21091159 0.30223462 0.11510844
0001e0 0f 35 b0 bd 9e ce ce 3e c8 67 15 bd 91 0e 68 3c
       -0.0860387 0.4039201 -0.036475927 0.014163629
0001f0 ae 2d 59 3e 78 1e 1c be f0 2f a7 be e9 db 0d bd
       0.21208832 -0.15245998 -0.3265376 -0.03463355
000200 c0 b4 37 bc bc 87 41 3e 75 cb ab bc d0 d0 cd 3e
       -0.011212528 0.18899435 -0.02097104 0.40198374
000210 24 2d 08 3f 54 08 9c 3e 01 e2 12 3d dd fd 08 3d
       0.5319388 0.30475104 0.035860065 0.033445228
000220 44 3f db 3e d4 a7 d0 3e 2d 72 22 3e 0d 22 41 3c
       0.42821705 0.40753043 0.15863867 0.0117879035
000230 07 6f 2e be 00 5c 69 bd 04 d3 74 3e 2d 1c aa be
       -0.17034541 -0.056972504 0.23908621 -0.3322462
000240 5f 59 43 be 47 26 4f bd 87 8a d6 3e c8 9f ed bb
       -0.19077061 -0.050573613 0.41902563 -0.0072517134
000250 da 7a 69 3e 22 c3 60 bd e1 81 24 3e 15 60 47 bd
       0.2280077 -0.054873593 0.1606517 -0.048675615
000260 85 cb 4e 3e e7 24 94 bd 78 86 64 3e 5f 85 c0 3d
       0.20194824 -0.07233601 0.22316921 0.094004385
000270 74 a1 0e bb 17 fe 05 3e 17 f0 6f bc b0 5f 00 3f
       -0.0021763714 0.13085209 -0.014644644 0.5014601
000280 3e 43 8d 3d 47 b6 46 3e f0 0c e0 3c d7 c6 a9 3e
       0.06897591 0.19405471 0.02734992 0.33159515
000290 17 1b 29 3e ae b3 4b be 72 b0 84 3e 83 c9 97 bd
       0.1651424 -0.19892761 0.25915867 -0.07411482
0002a0 1c 9a e6 3d 92 80 41 3e b1 d4 7d 3c cf cf 85 b9
       0.11259863 0.18896702 0.015492604 -0.00025522566
0002b0 b3 99 6b 3d e9 f1 a3 bd 14 71 89 bd 8c bd 2d 3e
       0.057519626 -0.08005125 -0.06711021 0.16966838
0002c0 6e 88 18 3d 9d d3 3d 3e 47 d3 53 3e ff b3 33 3c
       0.037239484 0.18537755 0.20686065 0.010968207
0002d0 4d ac eb bb e9 07 a4 3e a8 fa 57 3e 33 1a bc 3e
       -0.0071921707 0.32037285 0.21091712 0.36738738
0002e0 a2 8c d2 bb eb b8 94 bd aa 24 fe 3d e9 8c 50 bd
       -0.006425456 -0.07261833 0.12409337 -0.050915632
0002f0 bc c6 fb 3e 56 74 ff bc 7e bd 5b 3d 56 84 9c 3e
       0.4917506 -0.031183403 0.05364751 0.30569714
000300 33 9b 8e bc f0 c7 c9 3d a2 f1 bc bc 6c f7 78 3e
       -0.01740799 0.09852588 -0.023064438 0.24313134
000310 82 44 33 3e 2f 01 2b 3e 90 ae 25 bd b7 0d a6 b9
       0.17506602 0.1669967 -0.04044968 -0.00031672206
000320 6b 54 77 3d 8a 74 1b bc 20 6d 84 bd 9d 5e 02 bd
       0.06038324 -0.009488234 -0.064661264 -0.03182851
000330 bd 65 c5 bc bc 7c 80 3e f6 2e 26 bc d0 b9 57 be
       -0.024096364 0.25095165 -0.010143032 -0.21066976
000340 e0 c1 0f bd 33 49 81 3e 4b 75 a8 3d 9d 49 a0 3e
       -0.035097003 0.2525116 0.08225497 0.31306162
000350 93 cd ac bd 44 22 01 be 9b 4d 55 3e 88 4d 46 bc
       -0.08437648 -0.12610728 0.20830385 -0.012103446
000360 b9 82 21 be c3 d5 86 3e a8 2b 51 3e 1d e8 60 3d
       -0.15772523 0.26334962 0.2042681 0.05490886
000370 00 a1 ae 3e e5 16 59 bd 63 8c 17 be 29 d4 2c 3e
       0.34107208 -0.05300035 -0.14799647 0.16877808
000380 c5 5c d8 3e 4f 21 ba bc 71 d8 57 3e 95 71 35 3e
       0.42258278 -0.02272096 0.2107866 0.1771911
000390 48 dc 92 3e 6b 1b b1 bd b6 2f ff bb d5 d9 c4 3e
       0.28683686 -0.08647808 -0.00778767 0.38447443
0003a0 f5 84 d5 3e 6e 92 d7 3e aa 80 5c bd b8 3a 63 bc
       0.41703 0.42103904 -0.05383364 -0.01386898
0003b0 32 e8 57 3e d9 c6 17 3f ff 93 3e 3e 4d 31 ba bc
       0.21084669 0.5928779 0.18611144 -0.022728587
0003c0 93 ec d9 3c e8 52 85 3e fa 18 54 bd 3c d1 00 3e
       0.026602065 0.26039815 -0.051781632 0.12579817
0003d0 93 fc 8c bd b4 2d 43 bd c5 86 59 bd 59 3c 54 3c
       -0.06884112 -0.047651008 -0.053107042 0.012953841
0003e0 f2 21 48 bd 8f 90 ec 3e 37 70 9a 3e d4 a9 ab 3d
       -0.048860498 0.4620404 0.30163738 0.083820015
0003f0 bb 73 9d bd e3 28 90 bb 8b de 98 3e 3e f2 a9 3d
       -0.076880895 -0.0043994053 0.29857287 0.08298157

fc2.weight f4 [10, 256]
000000 ef dd 80 bb 60 fc d4 ba 4b b0 17 3c 08 56 9c 3d
       -0.0039327065 -0.001624953 0.00925834 0.07633597
000010 7e 9b 2e bb a7 20 98 bc fb bf 43 be 34 4a 4c be
       -0.0026642974 -0.018570257 -0.19116203 -0.19950181
000020 3b 5d 35 3d c0 16 5f be 49 aa 8d bd 32 23 27 be
       0.044278365 -0.21786022 -0.06917245 -0.1632202
000030 8e c3 40 bd 80 14 28 3c 28 6f 32 3d 13 4b 74 bd
       -0.047061495 0.010258794 0.043563038 -0.05964191
000040 f5 68 9b be 2a 91 c1 3d 9b f5 4d 3d 16 31 21 be
       -0.30353513 0.09451516 0.050283056 -0.15741381
000050 5b e5 38 bc 8a ef 93 bd 44 50 24 be 0b 42 81 bd
       -0.011285151 -0.07223423 -0.16046244 -0.06311425
000060 40 ad 1d 3d a9 e4 a2 bc 30 32 a9 3d 7a b1 04 be
       0.038495302 -0.019884424 0.08261526 -0.12958327
000070 db 9a 16 be 02 b7 23 3c 82 1b 80 be 6b 9f 1a 3e
       -0.1470751 0.009992363 -0.25020987 0.15099876
000080 c6 c8 0d 3e b5 4a d5 3d c1 09 40 be 42 aa 30 3c
       0.1384612 0.1041464 -0.18753721 0.01078278
000090 cb e5 5d bd db 2d bb 3d d1 27 05 be 6e c4 d7 3d
       -0.054174226 0.091396056 -0.1300347 0.10535513
0000a0 c5 6f c3 3d 0e 93 2e 3c c0 2d 8b bc 22 53 8b bd
       0.09542803 0.010655178 -0.016989589 -0.06802966
0000b0 1f d8 81 3b e7 bd 01 bd 9e 9b 61 bc 40 03 eb 3c
       0.003962531 -0.031675246 -0.013770012 0.028688073
0000c0 15 a3 8b 3c a5 66 f7 bc ff 1e f3 3c a5 0b 36 bc
       0.017045537 -0.030200312 0.029677866 -0.011111175
0000d0 5b 22 da bd dd 3f 28 bd ba 11 28 3e 81 a9 ad bd
       -0.10651084 -0.04107653 0.16413012 -0.08479596
0000e0 c4 d3 7d bd 6a 51 8f 3d 12 e1 9b bd 61 96 ae 3d
       -0.061969534 0.069979504 -0.07611288 0.08524776
0000f0 7a fa e4 3d e9 12 fc bb 6e 6f 9b 3c 62 00 b5 bb
       0.11180587 -0.007692684 0.018974032 -0.0055237273
000100 b9 82 e5 3c 79 d9 a5 3d 30 38 8a bc 4e b2 1f be
       0.028016435 0.0809812 -0.016872495 -0.15595362
000110 8f d1 1d be 3e 8f 94 bd dc 8f a6 3d ea e7 fa 3d
       -0.15411972 -0.07253884 0.08132908 0.12251265
000120 b5 f3 33 be e5 9b 8d 3d ef 95 9b bc e0 c7 4c bd
       -0.17573436 0.069145 -0.018992392 -0.049995303
000130 6f 9c d9 bc ef 23 ab be 12 f8 c9 3d 2b 84 8a bd
       -0.026563851 -0.33425853 0.09861769 -0.0676349
000140 46 01 9b 3d b2 9e 78 3c 41 f8 9b 3d f9 30 2a bd
       0.07568602 0.015174555 0.0761571 -0.04155061
000150 5b 67 4a 3c 3e 6d b3 bd 74 24 81 3d 85 09 a6 bd
       0.012353743 -0.08761071 0.06305781 -0.081072845
000160 ad 9d 6a 3d 4a 13 9c 3d a5 b9 44 bc cc 96 9c 3d
       0.057279278 0.076208666 -0.012007152 0.0764595
000170 bc 04 5b 3d 4a 75 a2 3c 92 be 13 3d 4f 83 0e be
       0.053471312 0.019831318 0.036070414 -0.13917278
000180 ba 52 55 bd 62 5a bf 3d 2f 69 29 bc 43 3f c0 3d
       -0.052080847 0.09343411 -0.010340019 0.09387066
000190 4e ec f4 3d bf d8 02 3d 4e fc 83 3b 34 21 a2 3d
       0.11959134 0.031944986 0.00402788 0.07916489
0001a0 ec 1e 1c be f7 34 1b bc 5a 81 08 3d d7 6f a2 3d
       -0.15246171 -0.009473077 0.033326484 0.07931488
0001b0 8d 68 81 3c cd bb 0c bd 40 50 38 be eb 62 9c 3c
       0.015796924 -0.03435879 -0.17999363 0.019090137
0001c0 81 99 21 be 0c 84 ec bd 6d fa 8a bd c4 bd 58 3d
       -0.15781213 -0.115486234 -0.06786046 0.05291535
0001d0 35 f9 26 be c4 06 84 3d 26 28 95 be 0e 58 26 bd
       -0.16306002 0.06446603 -0.29132193 -0.04061132
0001e0 39 73 12 3d 40 67 08 be 13 70 0e bd 37 4c 80 3d
       0.035754416 -0.13320637 -0.03477485 0.06264537
0001f0 ee 31 21 bd 16 dc f8 bd 69 3e 65 3c e0 0c 74 bd
       -0.039354257 -0.12151353 0.0139919305 -0.05958259
000200 26 c8 26 be 0f dd 11 be 01 6f 43 3c bb 83 c4 be
       -0.16287288 -0.14244483 0.011928321 -0.38381752
000210 83 9a 73 be 31 02 49 be d4 26 e7 bc 95 fb 46 bd
       -0.2378941 -0.19629742 -0.028216757 -0.04857977
000220 8d f2 01 3e 50 5b 81 3d 37 b2 04 be 94 c7 8d 3c
       0.12690182 0.063162446 -0.12958609 0.01730708
000230 5d 75 08 3e 18 fb 74 3d aa c2 50 be a9 bd 0b 3e
       0.1332602 0.059809774 -0.20386758 0.13646568
000240 d5 c6 04 3c 91 16 22 3e 44 c7 73 3d eb e4 2d bd
       0.008104046 0.15828921 0.059516206 -0.04245464
000250 96 51 1a bd 4c 28 dc bc e7 30 3d 3e 6e 04 34 bd
       -0.037675463 -0.026874684 0.18475686 -0.043949537
000260 b6 d7 b5 3d bc 7b 9e bc 9f fa 49 3c dc 78 d5 3d
       0.08879034 -0.01934611 0.012327819 0.10423443
000270 18 39 82 bd f1 74 0d be c5 11 fb bc 0c 6d a2 be
       -0.06358546 -0.13814141 -0.030648122 -0.3172382
000280 6d 12 e9 3d 9a 5e 99 be b2 55 a6 3c f8 94 7e bd
       0.113804676 -0.29954988 0.020304535 -0.062153786
000290 9f 0c 49 3d e1 66 1c 3e 80 ae 9a bb 5a 1b 12 bd
       0.049084302 0.1527362 -0.004720509 -0.035670616
0002a0 cd a5 0d bd 2f 7b 53 3d 2f 2f 60 3c 54 0b a3 3d
       -0.034581948 0.05163115 0.013683124 0.07961145
0002b0 36 07 07 be 68 70 b0 3c 82 b3 2a 3d 79 a5 b0 3c
       -0.13186345 0.021537974 0.0416751 0.021563279
0002c0 f1 a7 07 3e de b3 44 3d f2 67 7c be c2 7f b4 3c
       0.13247658 0.048023097 -0.24649027 0.022033576
0002d0 eb 33 a2 bd 7a a5 66 bd 56 8d 90 3d 91 48 ef bd
       -0.07920059 -0.056310154 0.07058208 -0.11683763
0002e0 49 c8 76 3e 8e e7 2c bc 0f fb 8e be 88 6c 58 bd
       0.2409984 -0.010553254 -0.27925918 -0.05283788
0002f0 81 b0 e2 bd 27 76 97 bc bb 10 a3 be ea 8b f1 3d
       -0.11068822 -0.018488957 -0.31848702 0.117942646
000300 89 33 3f bd c4 4d cb 3d 29 66 5e bb 8d 8e 14 3e
       -0.046680007 0.09926942 -0.0033935404 0.14507504
000310 fc b9 c9 3d aa 07 73 3e 30 cc ea bc de d4 b3 3b
       0.09849927 0.23733392 -0.028661817 0.005488022
000320 d6 d0 82 bd 20 6d 8b bc 84 a8 40 bd 48 a9 9b 3c
       -0.063874885 -0.017019808 -0.04703571 0.019001618
000330 e1 19 28 bd 2a 3c cb 3c 2e 1d 4a 3d 12 a6 0d bc
       -0.041040305 0.024808962 0.049344234 -0.008645551
000340 24 65 36 be 5f 81 4b bd a3 27 59 3d 0e 9d 8b be
       -0.1781202 -0.049683925 0.053016316 -0.2726826
000350 57 92 c4 bd 0b 03 52 bc 5b 10 01 3e 6d 4a 73 3c
       -0.095982246 -0.012818108 0.12603895 0.014849287
000360 79 4a 51 3e a2 84 2c 3e bc 1f 1e be ac 8b b0 3d
       0.20438565 0.1684747 -0.15441793 0.0862039
000370 9f dc 09 3e e9 31 af bd 90 5b dc 3d 20 04 3e be
       0.13463067 -0.085544415 0.10759652 -0.18556261
000380 93 e7 26 be ab 33 e5 bc a8 24 8a be 7d d5 a1 3d
       -0.16299276 -0.027978739 -0.26981091 0.07902048
000390 c4 90 f6 bd 42 f1 8c 3d f3 c3 2c be 66 cf 43 be
       -0.120393306 0.06881954 -0.16871624 -0.19122085
0003a0 81 00 6b be a1 b1 a6 be 1b 3a ed 3d f8 82 ab 3c
       -0.22949411 -0.32557395 0.11583348 0.020936474
0003b0 8c b7 56 3d 5b 93 d4 bd 88 63 b5 3d ef 90 87 bd
       0.052421138 -0.10379668 0.08856875 -0.06619441
0003c0 57 39 b9 bc bc bb 2e 3d eb f4 24 bc cf 6e c9 bd
       -0.02261035 0.042659506 -0.010068159 -0.09835588
0003d0 7a fa 1c 3d f8 06 9d bc fa af ee bc 83 69 9a 3d
       0.03832481 -0.019168362 -0.029136647 0.07539656
0003e0 81 38 52 3c 41 bc 46 3e ea 05 f1 bd cc 05 09 be
       0.012830854 0.1940775 -0.11768706 -0.13381118
0003f0 ca 5d 27 3d c4 17 0d bd f5 f9 94 bd 21 cf 6c be
       0.04086093 -0.034446493 -0.07274238 -0.23125888

fc2.bias f4 [10]
000000 bb c0 a8 be ef 9a 1a be 44 9d 77 be 90 e7 83 3e
       -0.32959542 -0.15098165 -0.24181086 0.25762606
000010 fa 99 81 3e 82 c6 97 bd 33 e1 65 3c ba 50 96 bc
       0.25312787 -0.07410909 0.014030742 -0.01834904
000020 38 fc 39 3e 4c d6 72 3e
       0.1816262 0.2371456
